…
    "        writer.writerow((label,pred))"
   ]
  },
  {
   "cell_type": "code",
   "execution_count": 9,
   "metadata": {
    "scrolled": true
   },
   "outputs": [
    {
     "name": "stdout",
     "output_type": "stream",
     "text": [
      "__________________________________________________________________________________________________\n",
      "Layer (type)                    Output Shape         Param #     Connected to                     \n",
      "==================================================================================================\n",
      "input_1 (InputLayer)            (None, 96, 96, 3)    0                                            \n",
      "__________________________________________________________________________________________________\n",
      "block1_conv1 (Conv2D)           (None, 96, 96, 64)   1792        input_1[0][0]                    \n",
      "__________________________________________________________________________________________________\n",
      "block1_conv2 (Conv2D)           (None, 96, 96, 64)   36928       block1_conv1[0][0]               \n",
      "__________________________________________________________________________________________________\n",
      "block1_pool (MaxPooling2D)      (None, 48, 48, 64)   0           block1_conv2[0][0]               \n",
      "__________________________________________________________________________________________________\n",
      "block2_conv1 (Conv2D)           (None, 48, 48, 128)  73856       block1_pool[0][0]                \n",
      "__________________________________________________________________________________________________\n",
      "block2_conv2 (Conv2D)           (None, 48, 48, 128)  147584      block2_conv1[0][0]               \n",
      "__________________________________________________________________________________________________\n",
      "block2_pool (MaxPooling2D)      (None, 24, 24, 128)  0           block2_conv2[0][0]               \n",
      "__________________________________________________________________________________________________\n",
      "block3_conv1 (Conv2D)           (None, 24, 24, 256)  295168      block2_pool[0][0]                \n",
      "__________________________________________________________________________________________________\n",
      "block3_conv2 (Conv2D)           (None, 24, 24, 256)  590080      block3_conv1[0][0]               \n",
      "__________________________________________________________________________________________________\n",
      "block3_conv3 (Conv2D)           (None, 24, 24, 256)  590080      block3_conv2[0][0]               \n",
      "__________________________________________________________________________________________________\n",
      "block3_pool (MaxPooling2D)      (None, 12, 12, 256)  0           block3_conv3[0][0]               \n",
      "__________________________________________________________________________________________________\n",
      "block4_conv1 (Conv2D)           (None, 12, 12, 512)  1180160     block3_pool[0][0]                \n",
      "__________________________________________________________________________________________________\n",
      "block4_conv2 (Conv2D)           (None, 12, 12, 512)  2359808     block4_conv1[0][0]               \n",
      "__________________________________________________________________________________________________\n",
      "block4_conv3 (Conv2D)           (None, 12, 12, 512)  2359808     block4_conv2[0][0]               \n",
      "__________________________________________________________________________________________________\n",
      "block4_pool (MaxPooling2D)      (None, 6, 6, 512)    0           block4_conv3[0][0]               \n",
      "__________________________________________________________________________________________________\n",
      "block5_conv1 (Conv2D)           (None, 6, 6, 512)    2359808     block4_pool[0][0]                \n",
      "__________________________________________________________________________________________________\n",
      "block5_conv2 (Conv2D)           (None, 6, 6, 512)    2359808     block5_conv1[0][0]               \n",
      "__________________________________________________________________________________________________\n",
      "block5_conv3 (Conv2D)           (None, 6, 6, 512)    2359808     block5_conv2[0][0]               \n",
      "__________________________________________________________________________________________________\n",
      "block5_pool (MaxPooling2D)      (None, 3, 3, 512)    0           block5_conv3[0][0]               \n",
      "__________________________________________________________________________________________________\n",
      "conv2d_6 (Conv2D)               (None, 3, 3, 6)      3078        block5_pool[0][0]                \n",
      "__________________________________________________________________________________________________\n",
      "max_pooling2d_1 (MaxPooling2D)  (None, 3, 3, 512)    0           block5_pool[0][0]                \n",
      "__________________________________________________________________________________________________\n",
      "conv2d_3 (Conv2D)               (None, 3, 3, 6)      3078        block5_pool[0][0]                \n",
      "__________________________________________________________________________________________________\n",
      "conv2d_7 (Conv2D)               (None, 3, 3, 6)      330         conv2d_6[0][0]                   \n",
      "__________________________________________________________________________________________________\n",
      "conv2d_1 (Conv2D)               (None, 3, 3, 6)      3078        block5_pool[0][0]                \n",
      "__________________________________________________________________________________________________\n",
      "conv2d_2 (Conv2D)               (None, 3, 3, 6)      3078        max_pooling2d_1[0][0]            \n",
      "__________________________________________________________________________________________________\n",
      "conv2d_4 (Conv2D)               (None, 3, 3, 6)      114         conv2d_3[0][0]                   \n",
      "__________________________________________________________________________________________________\n",
      "conv2d_5 (Conv2D)               (None, 3, 3, 6)      114         conv2d_3[0][0]                   \n",
      "__________________________________________________________________________________________________\n",
      "conv2d_8 (Conv2D)               (None, 3, 3, 6)      114         conv2d_7[0][0]                   \n",
      "__________________________________________________________________________________________________\n",
      "conv2d_9 (Conv2D)               (None, 3, 3, 6)      114         conv2d_7[0][0]                   \n",
      "__________________________________________________________________________________________________\n",
      "concatenate_1 (Concatenate)     (None, 3, 3, 36)     0           conv2d_1[0][0]                   \n",
      "                                                                 conv2d_2[0][0]                   \n",
      "                                                                 conv2d_4[0][0]                   \n",
      "                                                                 conv2d_5[0][0]                   \n",
      "                                                                 conv2d_8[0][0]                   \n",
      "                                                                 conv2d_9[0][0]                   \n",
      "__________________________________________________________________________________________________\n",
      "batch_normalization_1 (BatchNor (None, 3, 3, 36)     144         concatenate_1[0][0]              \n",
      "__________________________________________________________________________________________________\n",
      "global_average_pooling2d_1 (Glo (None, 36)           0           batch_normalization_1[0][0]      \n",
      "__________________________________________________________________________________________________\n",
      "global_max_pooling2d_1 (GlobalM (None, 36)           0           batch_normalization_1[0][0]      \n",
      "__________________________________________________________________________________________________\n",
      "flatten_1 (Flatten)             (None, 324)          0           batch_normalization_1[0][0]      \n",
      "__________________________________________________________________________________________________\n",
      "concatenate_2 (Concatenate)     (None, 396)          0           global_average_pooling2d_1[0][0] \n",
      "                                                                 global_max_pooling2d_1[0][0]     \n",
      "                                                                 flatten_1[0][0]                  \n",
      "__________________________________________________________________________________________________\n",
      "dropout_1 (Dropout)             (None, 396)          0           concatenate_2[0][0]              \n",
      "__________________________________________________________________________________________________\n",
      "dense_1 (Dense)                 (None, 1)            397         dropout_1[0][0]                  \n",
      "==================================================================================================\n",
      "Total params: 14,728,327\n",
      "Trainable params: 14,728,255\n",
      "Non-trainable params: 72\n",
      "__________________________________________________________________________________________________\n",
      "None\n"
     ]
…
